2.pytorch/net/whole_net.pkl (torch_old, 1897 bytes, 3 tensors)

weight f4 [10, 1]
000000 17 26 08 be 59 14 93 be c7 fa e9 be 8f 1f e3 be
       -0.1329578 -0.28726462 -0.4569914 -0.44360015
000010 41 84 06 bf 4c ab a5 be 27 f9 8a bf 03 05 2a bf
       -0.52545553 -0.32357252 -1.0857285 -0.664139
000020 62 ec 75 bf f6 c9 9e 3f
       -0.96063817 1.2405384

bias f4 [10]
000000 d2 cb 4b 3f a0 15 93 be 1f c3 79 bd f6 18 e3 3e
       0.7960788 -0.28727436 -0.060977098 0.4435498
000010 64 8a 3c 3f 4e 52 00 bf 0f 91 f9 be 67 33 86 bd
       0.7364867 -0.50125587 -0.48743483 -0.06552773
000020 6e 60 7b be 5e 34 a1 be
       -0.24548504 -0.31485265

weight f4 [1, 10]
000000 95 5c 34 3b a6 32 48 be 33 e0 e6 3e cd e8 84 be
       0.0027521004 -0.19550571 0.45092925 -0.25958863
000010 57 b8 81 3d a0 c9 24 3d 42 18 d1 3e 0f b6 d4 3e
       0.06333988 0.040231347 0.4083882 0.4154515
000020 b5 2b f3 3e 62 9f 5c 3f
       0.47494283 0.861807
