2.pytorch/net.pkl (torch_old, 1897 bytes, 3 tensors)

weight f4 [10, 1]
000000 2f 2d 8e 3f a7 6d 3d be 12 75 11 3f 98 b2 dd 3e
       1.1107539 -0.1849886 0.5681926 0.4330032
000010 26 74 91 bf 11 5f 4e bf 00 8d 55 3f 5b 7b 4f 3d
       -1.1363571 -0.8061381 0.83418274 0.05065475
000020 2e 7a 2f 3f 78 34 54 3e
       0.68545806 0.2072314

bias f4 [10]
000000 1a fc 2c 3e 5a 74 3f 3f 44 f5 75 3f 72 e0 29 bf
       0.16893044 0.74786913 0.9607737 -0.663581
000010 76 47 6e 3c 0f d5 48 3f 42 43 56 3f 00 49 1e 3f
       0.014543405 0.784501 0.8369638 0.6183014
000020 a4 45 39 bf c0 58 38 bf
       -0.7237189 -0.7201042

weight f4 [1, 10]
000000 63 21 19 3f ee 68 87 3d 6b 11 b9 3e 26 8c 4c be
       0.5981657 0.066118106 0.361461 -0.19975337
000010 e0 17 71 3f 13 ae 05 be e9 4c 4d be 18 91 2b bd
       0.94177055 -0.13054685 -0.2004887 -0.04188642
000020 f6 92 3a 3e d9 4f 96 3e
       0.18220124 0.29357794
